codingdialat/model.pth (torch, 453961 bytes, 10 tensors)

conv1.0.weight f4 [16, 1, 3, 3]
000000 08 70 bc bd cc a0 a0 3e 17 d4 09 3e b8 3a 35 be
       -0.09201056 0.31372678 0.13459812 -0.1769818
000010 61 e6 a4 3e 35 bb 4f 3e 3c 70 8c 3d 36 76 c2 bd
       0.32207015 0.20286258 0.068573445 -0.09495203
000020 52 ea a3 be 35 38 80 3e 05 e5 97 be 0f 1f 48 3e
       -0.3201471 0.25042883 -0.29666916 0.19543098
000030 8a 60 2e 3d 91 4a 89 3e 00 32 ea 3c cd 63 a9 be
       0.042572536 0.26814702 0.028588295 -0.33083954
000040 69 bc 01 3e 8d a7 c8 bc e0 59 e3 bd 8f c3 8b be
       0.12669529 -0.024493957 -0.11101127 -0.27297637
000050 a9 0d aa 3e 88 ae 5e 3e 1c 97 35 3d 44 13 8e be
       0.33213547 0.21746266 0.044333562 -0.27749074
000060 e8 21 4a bd 35 52 d1 3d 4c 27 3e bd 82 d8 4d 3d
       -0.04934874 0.10220758 -0.046424195 0.050255306
000070 64 84 24 be 47 95 63 be ed 62 72 be 4d ff a0 3d
       -0.16066128 -0.22224914 -0.2367055 0.07861195
000080 94 02 8a 3e fa c5 fe 3b 05 d5 c9 bb 73 d8 7e be
       0.26955092 0.0077750655 -0.006159427 -0.24887256
000090 c8 81 c0 bd 31 f5 09 3e 72 ee fb bd 63 06 2a 3e
       -0.09399754 0.1347244 -0.12301339 0.16603999
0000a0 8d d3 44 3e 37 ad 4a be f1 6c 95 bd af 43 de bd
       0.19221325 -0.19792639 -0.072961695 -0.10852753
0000b0 bd 7f 96 be 94 27 83 be 91 7f e3 3d 77 de 2a 3e
       -0.29394332 -0.25616133 0.11108316 0.16686426
0000c0 9a c3 9f be e3 75 87 3e af ed 4c 3e c1 5d f9 bc
       -0.3120392 0.26457128 0.20012544 -0.030440213
0000d0 82 16 98 bd 69 d8 9d be c5 22 3b 3d b6 ce f9 bd
       -0.07426168 -0.3082917 0.045687456 -0.1219763
0000e0 d0 60 2c bd 39 82 98 bd ab f0 6b be 69 42 93 3e
       -0.042084515 -0.07446713 -0.23041026 0.28761604
0000f0 90 ac 71 be 44 5d 84 be 3b ed 0d 3e 18 92 4a bd
       -0.23600984 -0.25852406 0.13860027 -0.049455732
000100 26 48 a4 be df 58 ca 3b 29 8c 45 be cf a3 9c 3e
       -0.32086295 0.006175145 -0.19291748 0.30593726
000110 de 57 71 3e e4 76 9a be f6 1e 5e 3e 38 bb 97 3e
       0.23568675 -0.3016883 0.21691498 0.29635024
000120 ea 6b 75 3e d7 e3 3f 3e 52 7d ed 3c 53 10 96 3e
       0.23966947 0.18739258 0.028990421 0.2930933
000130 4c c2 81 be b2 8b a3 3d 79 45 9a 3e 5a 88 99 3e
       -0.2534355 0.07985629 0.30131128 0.2998684
000140 8e ee cc bd c7 57 7d bc d4 eb 80 be 29 ac c7 3d
       -0.10006438 -0.015462822 -0.25179923 0.09749634
000150 d5 c0 69 be 85 d5 cf 3d de 10 f6 3d c0 85 06 3e
       -0.22827466 0.101481475 0.12014936 0.13136959
000160 92 ea 02 3e 43 64 3d 3e 20 ce 06 3e 0c e0 43 bd
       0.12784794 0.18495278 0.13164568 -0.04782109
000170 fc cd 59 be 40 ab 21 3e b7 86 5e 3e ed 5c c7 bd
       -0.21269983 0.15787983 0.21731077 -0.09734521
000180 b3 1a af 3e bf 96 9b bc 67 8a 4e 3e 77 56 9c be
       0.34200057 -0.01899278 0.20169984 -0.30534717
000190 8f 1c e8 bd ce 5c 5f 3e fc 9c 19 3d 19 41 3b be
       -0.11333572 0.21812746 0.037503228 -0.18286552
0001a0 05 8b 94 3e 60 05 9c be 11 99 67 be 9a e3 9c be
       0.29012313 -0.3047285 -0.22616984 -0.30642396
0001b0 18 df 5b be f8 c1 62 3e 3b 40 06 bd ed 78 ba bc
       -0.21471822 0.22144306 -0.0327761 -0.02276274
0001c0 a6 fd 80 be 09 1e 65 bd b0 fd 6b be 9f dd 89 bb
       -0.25193518 -0.055936847 -0.23045993 -0.0042073275
0001d0 7a 02 45 3e 2c 0c 07 3c fe 6c 92 be ae 67 a4 3e
       0.19239226 0.008242648 -0.2859878 0.3211035
0001e0 81 17 8c 3e 0a 9a 6b 3e 09 ef ee 3d c7 c3 90 be
       0.27361682 0.2300798 0.11666686 -0.28274366
0001f0 d3 01 a3 3e 56 f2 5f 3d 05 a1 e3 3c 73 46 9a 3b
       0.3183733 0.05467447 0.027786741 0.004708105
000200 eb 2f 42 be 39 26 80 bd 99 0a 38 3e 8b ce 96 3b
       -0.18963592 -0.062572904 0.17972793 0.0046022586
000210 6c e8 f9 bd 96 71 77 be 2e 2c b1 3d 01 71 50 3d
       -0.12202534 -0.24164423 0.08651005 0.05088902
000220 c3 72 93 bd 7d 2b 8d bd e9 47 8c 3e c5 21 82 be
       -0.071996234 -0.0689306 0.27398613 -0.2541639
000230 a4 37 fa 3d 7c 34 22 bd 7d 56 54 3e 2a a9 70 be
       0.12217644 -0.039600834 0.20736118 -0.23502031

conv1.0.bias f4 [16]
000000 0f 0a 6c bd 05 e3 8c 3d 68 4a d5 bd 96 8c c3 3c
       -0.05762678 0.06879238 -0.104145825 0.023870748
000010 36 76 a6 bd c2 dc 94 be 31 24 81 bd 3a 58 2a 3d
       -0.08128016 -0.29074675 -0.06305731 0.041588046
000020 54 1a 76 bc 8b 3a 38 be 4c 15 16 3e 8a 4e 92 be
       -0.015020926 -0.17991082 0.14656562 -0.28575546
000030 67 31 a7 3d 95 6a 22 bd 8e 20 08 be 09 f2 e3 bd
       0.081637196 -0.039652426 -0.13293669 -0.11130149

conv2.0.weight f4 [32, 16, 3, 3]
000000 9c 27 ff 3c 45 6f 99 bd 50 8a 8b bd bf 17 bd 3c
       0.031146817 -0.07491926 -0.068134904 0.023082612
000010 6b 48 d2 bc 8a 6b 45 3d eb a2 bb 3d ae f0 33 3d
       -0.025669297 0.04819826 0.091619335 0.043930702
000020 63 ac db bc 36 b5 8a 3b 9e 41 7c 3d bb 55 08 3d
       -0.026815599 0.004233028 0.061586015 0.033284884
000030 0f f5 90 bd db c5 23 3d 39 b8 91 3d bc 36 8c bd
       -0.07077991 0.03998361 0.07115216 -0.06846377
000040 b4 56 01 bd 78 85 e1 bc 39 36 8c 3d 85 3f 83 3d
       -0.031576827 -0.027529463 0.0684628 0.064086
000050 91 63 d7 3b fc 69 22 3d 0a f1 95 3c 2e 88 ad 3d
       0.0065731485 0.039651856 0.018303413 0.0847324
000060 2a 8c 89 bd 7f e2 a6 bd 43 d7 34 bd 30 de 06 bb
       -0.06716187 -0.081486695 -0.044150602 -0.0020579211
000070 a6 d2 7c 3d db 47 b9 3d 32 76 59 3d 2b 85 3d 3d
       0.061724328 0.090469085 0.053091235 0.046269577
000080 2d 67 5e bd c4 cb 5a 3d 21 6f 00 3c 23 65 bf bc
       -0.054297615 0.053416982 0.007838995 -0.023363655
000090 e4 c8 4d bc d0 96 4b bd a4 13 a4 bd d3 59 fa 3c
       -0.012560103 -0.049704373 -0.08011559 0.03056041
0000a0 b0 db 7e 3d 1e 93 7b 3d c2 48 59 bd 5a e8 36 3c
       0.06222123 0.0614196 -0.053047903 0.011163795
0000b0 d7 07 a4 bd 5d 87 02 bb 00 83 ac 3a de 12 b0 3d
       -0.08009308 -0.0019917109 0.00131616 0.08597349
0000c0 b5 43 13 bd 37 91 9a 3d 31 30 4f bd b4 4c 95 3d
       -0.035953242 0.07547229 -0.05058307 0.072900206
0000d0 71 5d 0c bb 41 62 02 3c e2 f5 70 bd 44 b0 c5 3c
       -0.0021418 0.007957996 -0.058828242 0.024131902
0000e0 2f 60 2e bd c6 71 bd bc a7 b1 68 3d 91 0b 8d bd
       -0.042572197 -0.02312554 0.056810047 -0.06886972
0000f0 1e ef 9b 3d 06 08 42 bd 8c ad 1e 3d 63 e0 2c 3d
       0.07613967 -0.047370933 0.038739726 0.04220618
000100 31 e4 0a 3d c6 6a 6d 3c e0 f4 d4 bc 91 2f 86 bd
       0.033909027 0.014490789 -0.025995672 -0.06552041
000110 c8 b8 8d bd de 21 e0 bc 4b 89 26 bd 78 25 0a bd
       -0.0692001 -0.0273599 -0.040658277 -0.03372714
000120 a0 0b 90 3c dc a9 d9 3c 7f 56 6e 3d e4 0b 4e bc
       0.017583668 0.026570253 0.058187958 -0.012576077
000130 ef 2b b0 3d e7 f5 db bb 81 40 b0 3c 6f 33 4b 3c
       0.0860213 -0.0067126635 0.021515133 0.012402399
000140 1c fd eb 3c d5 66 31 3d fa 2a 2c bd 68 b0 6e 3d
       0.028807215 0.04331096 -0.042033173 0.058273703
000150 8d 17 a3 3c a7 16 98 bd ab 9e 9d bd e5 2d 87 3d
       0.01990869 -0.074261956 -0.07696279 0.066005506
000160 54 81 94 bd 57 ab 71 3c 7d 12 78 bd 33 f3 6c bd
       -0.0725123 0.014750323 -0.060564507 -0.05784912
000170 c9 4d ab bd d5 bf 67 bd 02 36 cf 3c 47 01 8a 3d
       -0.08364446 -0.05657943 0.025294308 0.06738525
000180 fc a6 21 bc 01 c0 95 3d 64 4b 86 bd 5d 26 f4 bb
       -0.009866472 0.073120125 -0.06557348 -0.0074508623
000190 8c e7 09 3d 02 63 90 bd 8a ec 2b bd 1d 62 eb bc
       0.033668086 -0.07050134 -0.041973628 -0.028733307
0001a0 6e b8 90 3d 8d 7f 19 3d e0 7e 6b bd 2d df e6 bb
       0.07066427 0.037475158 -0.057494044 -0.0070456476
0001b0 18 e0 c6 3c 6d 45 94 3c f7 e7 46 3d c8 f6 55 3d
       0.024276778 0.018099511 0.048561063 0.052237302
0001c0 93 83 57 3d 28 0a 95 bd fb b9 9b bc 8b 27 94 3d
       0.052615713 -0.07277328 -0.01900958 0.07234105
0001d0 df 50 5e 3d 5c 06 6b 3d 49 c6 e9 bc cd d7 04 3d
       0.054276343 0.05737911 -0.028536933 0.032432366
0001e0 03 5f 3f 3d 4f 47 31 bb fa 43 63 3d 56 7f 57 bd
       0.04672147 -0.002705056 0.05548475 -0.05261167
0001f0 f1 ba ab ba e5 c3 49 bb f4 db 24 3d 46 44 83 bd
       -0.0013101978 -0.0030786928 0.040248826 -0.064095065
000200 36 39 6f bd a6 0b 99 3d 27 31 4c 3d d7 82 ff 3c
       -0.05840417 0.07472925 0.049851563 0.031190319
000210 84 09 56 bd 38 bc 15 bd fe 53 9a 3d 58 ba 9e bd
       -0.05225517 -0.036556453 0.075355515 -0.07750386
000220 32 de 57 3d c5 7f 51 3d e2 42 39 3d be 13 0b 3d
       0.052702136 0.05114724 0.0452298 0.033954374
000230 38 2e a9 bd 84 09 1e bc ae e3 89 3d 0b 5d 94 bb
       -0.08260769 -0.009645823 0.067328796 -0.004527693
000240 cf 1e 42 bd 26 7a 5d bc bd 10 58 bd 3e 89 46 bd
       -0.047392663 -0.013517892 -0.052750338 -0.048470728
000250 4d be b2 3d 52 49 89 3d a0 54 22 bc 36 7d 97 bd
       0.08727703 0.06703438 -0.0099078715 -0.07396929
000260 1e 97 89 bd b7 11 50 bd b0 85 68 3d bf f6 ac 3d
       -0.067182764 -0.050798144 0.05676812 0.084455006
000270 6e 6d 44 3d 9b c0 02 bb 01 8e 2e ba c8 a4 65 3d
       0.047955923 -0.0019951228 -0.00066587335 0.05606535
000280 f8 74 33 3d 0a 57 a3 bd a1 b0 3c 3d 23 dc 87 bc
       0.043812722 -0.07975586 0.046066884 -0.016584462
000290 57 c3 93 bd 6f 24 90 3d db 4e 40 bd d8 94 46 bd
       -0.072149925 0.07038199 -0.046950202 -0.048481792
0002a0 4b 8e 03 3d 7a 00 34 3d ac ce 79 3c 88 75 24 3d
       0.032118123 0.043945767 0.015247028 0.04015115
0002b0 05 e2 01 bd fd c9 eb 3c 1a f2 50 3d ad 94 86 bd
       -0.03170969 0.028782839 0.051012136 -0.065713264
0002c0 02 d2 ed 3b c9 a1 a9 bc 62 d0 aa bd 13 66 17 bc
       0.007257701 -0.020707028 -0.08340527 -0.009240645
0002d0 eb d1 5c 3d 97 4b 4c 3d 7d ab 66 3c 51 9c 5e 3d
       0.05391113 0.049876776 0.014078972 0.054348294
0002e0 3e 5c 6f bd 42 2c c2 3c 54 07 56 3d f8 84 84 3c
       -0.05843758 0.023702744 0.052253082 0.016176686
0002f0 78 45 8a ba 17 40 ba 3d bc 54 92 ba 5c 71 dd 3c
       -0.0010549268 0.090942554 -0.0011164169 0.027031593
000300 ca 21 b2 bc a3 bd 8c bd 55 ac 3a bd 89 5f 82 3c
       -0.021744628 -0.06872108 -0.045574505 0.015914695
000310 17 cc a0 3d f1 ff 8e 3d 96 c0 a4 3b c1 2c dd 3c
       0.07851427 0.06982411 0.005027841 0.02699888
000320 1a e4 86 3d 0a 2f 18 3d 3f f4 f8 3c 5e 36 b2 bd
       0.06586476 0.037154235 0.030389903 -0.08701776
000330 18 87 94 bd 1f c6 02 3d 61 35 6a 3d 6b 99 ae 3d
       -0.072523296 0.031927224 0.057179812 0.08525356
000340 09 f1 6b 3d 30 e3 20 3d 78 0a 02 3d cc 2d 49 bd
       0.057602916 0.039279163 0.031748265 -0.04911594
000350 57 4c 09 3d fd de 6f 3d 1d 5a 39 3c 19 9b 2e 3d
       0.03352007 0.058562268 0.011312989 0.04262838
000360 29 c1 a9 3d 7f 4b 47 bc 4b f5 25 bd 56 ab 1b bd
       0.082887955 -0.012163996 -0.040517133 -0.038005196
000370 b3 ac 93 3c c6 80 57 3d 03 f1 99 bc d4 b7 55 3b
       0.018026685 0.052613042 -0.018791681 0.003261079
000380 66 d0 91 bd af dd 82 bd 73 70 cb 3c 8c 14 f9 bc
       -0.07119827 -0.06389939 0.024833893 -0.030405305
000390 15 bd af ba 89 ab 1a 3c 00 29 57 3d bc 67 33 3d
       -0.0013407791 0.009440311 0.052529335 0.0438001
0003a0 3b b2 0e 3d 39 28 86 3a bc 93 f8 bb de b2 a0 3d
       0.034837943 0.0010235376 -0.0075859707 0.07846616
0003b0 6a d7 f6 bc 7d 04 e0 3c 17 89 0a 3d fb f0 27 3d
       -0.030132014 0.02734589 0.033822145 0.0410013
0003c0 c8 96 fa bc 57 90 54 3d 84 a8 81 3d 43 de 40 3c
       -0.030589476 0.051895466 0.0633097 0.011771741
0003d0 e7 b5 62 3d 80 10 d4 3c aa 27 5f bd d7 83 2e 3d
       0.055349257 0.025886774 -0.054481186 0.0426062
0003e0 34 29 10 3d 9b 68 6d 3d 66 d6 6a bd b6 de 69 3d
       0.035195544 0.057961088 -0.057333373 0.05709716
0003f0 77 d7 8b 3d 3e 67 6b 3b 13 a4 a2 3d e4 90 32 3d
       0.06828206 0.0035919691 0.07941451 0.04359521

conv2.0.bias f4 [32]
000000 26 61 2c 3d 14 5a 7f bc 19 51 36 3d 3a b9 6d bd
       0.042084835 -0.015585441 0.044510935 -0.058037974
000010 a3 f1 04 bd a1 62 68 3d a8 75 a1 3d 09 eb 0f bd
       -0.032457005 0.056734685 0.07883769 -0.035136256
000020 bd 42 29 3d f3 60 87 bd 5c 15 1d 3d 18 98 46 bd
       0.041323412 -0.066102885 0.038350448 -0.04848489
000030 07 52 78 bd d9 9c d2 3c 13 b6 e8 3c d5 bd 9e bd
       -0.060625102 0.025709556 0.028407132 -0.07751051
000040 ac 57 d9 3d 33 6a 09 3d 0b 62 c0 3d b6 43 7f 3d
       0.10612425 0.033548545 0.093937 0.062320434
000050 82 e3 43 3d 41 bb 85 bc 4c 96 c7 bc d8 a2 cd 3d
       0.04782439 -0.016324641 -0.02436366 0.100408256
000060 c4 83 71 3c a3 8d 29 bd 6e 3c 63 bd 8f c5 22 bd
       0.014740888 -0.04139484 -0.055477552 -0.039739188
000070 fe 63 c2 3d 31 29 12 bd dc 9d 99 3d 14 4b b2 ba
       0.09491728 -0.035683814 0.075008124 -0.0013602697

conv3.0.weight f4 [64, 32, 3, 3]
000000 e7 f4 9a ba 77 dd 1d bc 56 b5 32 bd 6d 30 ad bc
       -0.0011822254 -0.009635321 -0.043629967 -0.021141255
000010 14 2c a9 3c b1 fe 2d bd d8 1f 20 3d b1 b9 87 3b
       0.0206509 -0.04247922 0.03909287 0.004142009
000020 a3 72 25 bc 67 3e 39 3b 0e 03 66 3c 85 e6 93 bc
       -0.010098132 0.0028265954 0.014038814 -0.018054256
000030 b2 98 52 bd 98 77 cc ba e6 60 b8 3c 33 0c 27 bd
       -0.051415153 -0.0015599607 0.022507142 -0.04078312
000040 c3 fe 02 3d 89 d6 17 bc 33 6b 6d bd 17 bc 0e 3d
       0.03198124 -0.009267458 -0.05796356 0.034847345
000050 d7 3f 43 3d df af 4c bc e6 36 2b bd 0c 60 b5 b7
       0.047668304 -0.012493103 -0.041800402 -2.1621607e-05
000060 4c 53 0f 3c c1 fb dd bc 50 d0 db 3b 0f 02 a9 3c
       0.008747887 -0.027097585 0.0067081824 0.020630864
000070 c4 ac 2d bc 95 87 ca bc 65 1c 03 bd 43 4e 07 3d
       -0.010600273 -0.024722854 -0.0320095 0.03303362
000080 e7 5e 0b 3d 01 0f ae 3c 19 87 c5 39 b3 54 00 3d
       0.034026053 0.021247389 0.00037675424 0.031330775
000090 01 9f d1 3b dc 51 30 3d da b6 1c bd f5 39 35 bd
       0.0063971286 0.043046817 -0.03826032 -0.044244725
0000a0 6e ee 79 bb fd e6 17 3c a3 0c 1e 3d 81 11 42 3d
       -0.00381365 0.0092713805 0.03858627 0.047379974
0000b0 c7 b6 3b 3d 1b fd f5 3c 7e 4d ae 3c 74 e3 01 bd
       0.045828607 0.030027917 0.021277186 -0.031711057
0000c0 7c e7 5b 3c a3 a4 1c bd 92 07 df 3c 45 ee b9 3b
       0.013421889 -0.038242947 0.02722529 0.005674156
0000d0 6e 80 ff 3c b3 67 4a 3d f5 2e 4b bd 57 1b e6 3c
       0.03118917 0.0494153 -0.04960533 0.028089209
0000e0 a5 42 5b bc d8 b5 a9 bc d4 bd 06 bd 4b ff 96 bc
       -0.0133825885 -0.020716593 -0.032895878 -0.01843228
0000f0 db bb 83 3d 57 7e ed 3c 65 c3 9d bc 15 09 8d bd
       0.06432315 0.028990908 -0.01925821 -0.06886498
000100 3d e9 84 3c 34 9b 3f 3d da 7c ea bb 95 5d 53 3d
       0.016224498 0.046778873 -0.0071559967 0.05160292
000110 3d 0d 50 b9 e8 2b 1f bd 22 d5 cf bc 4e 65 08 bd
       -0.00019841357 -0.03886023 -0.025370184 -0.033299737
000120 34 bd 13 b9 79 1e 6b 3c 8f a3 3f 3c 29 63 e4 3c
       -0.00014089496 0.014350527 0.01169671 0.027879314
000130 a8 94 52 bd c9 ad 8f bc 0f d1 30 3d 5a 7b ec 3c
       -0.0514113 -0.017538922 0.043168124 0.028867412
000140 d3 a8 f9 3c c5 ed 73 bd 42 8f 2c bd 6b d8 c7 bc
       0.03047601 -0.059552927 -0.04212881 -0.024395188
000150 b0 e2 1e bb bb 68 d4 3c 41 cf 22 bb 44 d9 2c 3c
       -0.0024244003 0.025928846 -0.0024842771 0.010549847
000160 8e 57 00 3d a7 a5 00 bd f2 07 a3 3a 79 2d 90 bb
       0.0313335 -0.03140798 0.0012438281 -0.004399952
000170 5c e6 c9 bc 22 3e 3e bd 2a 35 47 3d c3 25 53 bc
       -0.024645977 -0.046445973 0.048634686 -0.012887421
000180 0d fb 52 ba 63 1b 81 3d 7b bf 8b 3d 35 20 32 3d
       -0.0008048274 0.06304052 0.068236314 0.043487746
000190 e9 91 ff bc f4 5e e8 3c e5 0f 46 3b 02 4b c4 3b
       -0.031197505 0.02836559 0.0030221876 0.005990387
0001a0 d3 3b f6 3c d9 ad 56 3d a6 17 b4 bc 19 9b fd bc
       0.030057823 0.052411888 -0.021983933 -0.030957745
0001b0 cb 45 2a bd 11 91 52 3d 42 d7 97 bc 9f e8 93 bc
       -0.041570466 0.051407877 -0.01853526 -0.018055258
0001c0 82 f4 82 3d e1 cc da 3c 94 e1 b8 bc 7f c2 27 bd
       0.063942924 0.026709022 -0.022568502 -0.04095697
0001d0 ec dc 13 3c 8f 8f 3e bd 77 22 38 3d ff e5 00 3d
       0.00902484 -0.046523627 0.044954743 0.03146934
0001e0 74 fb b0 bb d6 3f 10 3d 97 f7 42 bd 65 da 73 3d
       -0.0054010693 0.03521713 -0.0475994 0.05953445
0001f0 ee 99 57 3d 5d 7f 1c 3d 6d c6 c4 3b 8b cb b6 3c
       0.052637033 0.0382074 0.0060050995 0.022313854
000200 b3 13 78 3d de 11 86 bc db ba 30 bd f7 86 00 bd
       0.06056566 -0.016365942 -0.04314695 -0.031378713
000210 f5 1f e2 3c e7 d6 3d bd 9f 1e 07 3d be 28 c6 3c
       0.027603129 -0.046347525 0.032988187 0.02418935
000220 e5 54 f5 bb e9 42 36 bc e4 b3 6f bc ce 5c fd bc
       -0.007486927 -0.011124351 -0.014630292 -0.030928042
000230 ee f0 1d bc 23 7d ac 3c 91 35 e2 bc 34 ab 31 bd
       -0.009639962 0.021055764 -0.027613433 -0.043376163
000240 11 9b 45 bc 99 27 71 3c 09 51 0f 3d 4c 29 9a 3c
       -0.0120608965 0.0147189135 0.03498939 0.01881852
000250 7d 8f a1 bc 77 a7 8d bb 09 6a 54 bc e9 a9 0a 3d
       -0.01972174 -0.004322942 -0.012964734 0.033853445
000260 09 03 05 3d 02 a3 64 bd d7 5b a5 3b be e3 4e 3d
       0.032473598 -0.05581952 0.0050463486 0.05051016
000270 ef 81 a1 3c f2 2e ef bc fa c4 e9 bc 0b a3 35 3d
       0.019715277 -0.02919719 -0.028536309 0.044344943
000280 fe 98 66 3d a7 9e 43 3d 58 62 ee 3b e8 d5 b3 3c
       0.05629825 0.047758725 0.007274907 0.021952584
000290 35 d2 6d 3d 59 82 f8 bb d5 0a 21 3d af 2b fd b9
       0.058061797 -0.007583898 0.03931697 -0.00048288467
0002a0 bd 67 0f 3d 25 e5 8b 3d 37 21 fa bc 95 09 e6 3c
       0.035011042 0.06830815 -0.030533416 0.028080741
0002b0 fe 54 f9 3c 92 b9 44 bd 9d 3d 07 3d 21 4c 0f 3d
       0.030436035 -0.048028536 0.033017743 0.03498471
0002c0 28 8c 18 3d 60 1e 0a 3c e9 23 75 3d a2 97 fc bc
       0.03724304 0.0084300935 0.0598487 -0.030834023
0002d0 89 18 84 3c 2a 76 07 bd d3 ce de bc 87 f8 8f 3d
       0.01612498 -0.033071674 -0.02719823 0.07029825
0002e0 4a 6d 90 3c 35 1e 32 3d 2a e8 18 3c 0b 55 73 bc
       0.017630238 0.04348584 0.009332696 -0.014851819
0002f0 5b dd 48 3d a0 52 6d bd a9 f3 35 3d 37 86 09 bd
       0.049039226 -0.057940125 0.044421826 -0.033575263
000300 1c 84 4d bd 61 51 c5 3b 7a 68 0a bc 5a 6b 42 3d
       -0.050174817 0.006021664 -0.008447761 0.04746566
000310 23 69 99 3c 1d e7 16 3d bf 7f 3a 3d 5b c6 60 3b
       0.01872689 0.0368415 0.045531984 0.0034297917
000320 b1 ca da 3a 74 7a 1e 3d 0b a6 48 3c 8b 6b 09 bd
       0.0016692487 0.038691 0.012246619 -0.033549827
000330 fa 05 e8 bc 5f d4 03 3c c1 cc 01 3d 36 af 01 bd
       -0.028323162 0.008046239 0.03168941 -0.031661235
000340 22 78 28 3d ed 53 9c 3c 91 4a 22 3d 6e d4 4e bc
       0.041130193 0.019082988 0.039621893 -0.012623889
000350 4b b3 5b bc 6c 39 e5 bc 18 f9 d2 3b f3 3d 29 3b
       -0.013409446 -0.027981482 0.0064383857 0.0025824278
000360 fb 2b ba bb 58 ed 5c 3d 96 ce 4a bd 79 33 c0 bc
       -0.0056815124 0.053937286 -0.049513422 -0.023462044
000370 65 a8 2c 3d ca 01 d1 3c f6 b1 28 3d 3d 04 d7 bc
       0.04215278 0.025513548 0.04118534 -0.026247138
000380 de b7 b8 bc 75 0d 47 bc 01 a6 38 bd 3f fb 85 3d
       -0.022548612 -0.0121492045 -0.04508019 0.06542062
000390 02 27 fe 3b 37 0f c3 3c 4a f6 b1 bc 7f c6 e4 3c
       0.007756115 0.023810966 -0.021723885 0.027926682
0003a0 aa 99 a1 bb 24 2e 05 bd 15 fe 17 3d 48 62 24 bd
       -0.0049316483 -0.032514706 0.037107546 -0.04013279
0003b0 ee fb 2b bd fa 64 a7 3c 7c 51 d6 bc 86 14 81 bc
       -0.041988306 0.020433892 -0.026161902 -0.015756857
0003c0 fa 8f 62 3d c2 3e 67 3d 4e d9 40 3d 46 0e 8c bc
       0.055313088 0.056456335 0.047082238 -0.01709665
0003d0 18 1f 2b bd 31 33 6a bd 63 d6 9a 3c 43 c6 24 3b
       -0.0417777 -0.057177726 0.018901056 0.0025142587
0003e0 66 a8 cd 3b 96 0f 06 bd d8 d3 ca bc 2a 61 6d bd
       0.006276178 -0.032729708 -0.024759218 -0.05795399
0003f0 90 a4 cd 3b 81 12 07 bd fa de 8a 3c 42 ce 04 3d
       0.006275721 -0.03297663 0.016952027 0.032423265

conv3.0.bias f4 [64]
000000 0e 36 a6 bc e1 17 e8 bc 01 4b 8d bc 4a d5 00 bd
       -0.020289447 -0.028331699 -0.017247679 -0.03145341
000010 bf d3 d7 3c d8 c4 fa 3c 21 73 66 bb 0c 59 fa bc
       0.026346086 0.03061144 -0.0035163837 -0.030560039
000020 82 80 cb bc be 01 fe bc 77 b1 80 3d 64 94 14 3d
       -0.02484155 -0.03100669 0.06283849 0.03627433
000030 29 de 85 3d 2b dc 53 bc d1 50 89 bc ff 2a 2d 3d
       0.06536514 -0.01293091 -0.01676217 0.042277332
000040 c7 10 f5 3c ee ba 05 3d 54 bd fb bc 9d a1 09 3c
       0.029915227 0.032648973 -0.030729927 0.008400348
000050 5c 35 bf bc 32 c3 ba 3c 7c 2c 17 3d 75 52 10 3c
       -0.023340873 0.022798155 0.036907658 0.008808722
000060 6c 94 c8 bc 11 87 5a 3c b3 0c 54 3c fb 8e 16 3d
       -0.024484836 0.013337866 0.012942481 0.03675745
000070 20 e6 38 bc a5 ef f9 3c 3a 84 2d 3d ca 9a 34 bd
       -0.011285335 0.03050978 0.04236243 -0.04409293
000080 b9 32 03 bc ce ff f0 3a cc d4 19 bc 49 d7 93 3d
       -0.008007699 0.0018386783 -0.009389114 0.07218797
000090 48 4c be 3b e5 a3 4e 3d 85 75 03 3d 66 9f 5b 3d
       0.0058074333 0.05044927 0.032094497 0.05361881
0000a0 fc 7b 89 3c 07 28 36 3d ea 2e 64 bd a5 d8 87 3d
       0.016782753 0.044471767 -0.055708803 0.066331185
0000b0 fc 4a 20 bd 51 32 e3 bc 90 18 01 3d f3 b7 4e 3d
       -0.03913401 -0.027733954 0.031517565 0.050468396
0000c0 23 cd fd bc eb 59 fb 3a c0 e1 9d 3d 0c 25 83 bd
       -0.030981606 0.0019176578 0.07709074 -0.064035505
0000d0 b7 cd 30 3d 99 12 56 bd de 35 09 bd f8 0a 38 bd
       0.043164935 -0.05226383 -0.033498637 -0.044932336
0000e0 b4 2a a1 bc c3 9e 87 bc 16 0c 46 bd 62 7b 9d 3d
       -0.019673683 -0.016555196 -0.04835137 0.07689549
0000f0 05 1a d6 3b 28 1e 82 3d 81 7e e8 3c 2d ab 39 bc
       0.0065338635 0.06353408 0.028380634 -0.011332315

conv4.0.weight f4 [128, 64, 3, 3]
000000 3f 7f 25 bc 44 86 85 3a 73 84 d9 bc 67 35 b5 3c
       -0.010101139 0.0010187109 -0.026552415 0.02212019
000010 ec 24 05 bd 88 b6 30 bb b0 54 e9 3c 85 44 12 3d
       -0.032505915 -0.0026964266 0.028482765 0.035709877
000020 65 57 05 bd 0f 0a f0 bc 86 a3 1d 3d f9 71 3c 3c
       -0.03255405 -0.029301671 0.038486026 0.011501783
000030 1d bc d5 3c d6 c5 02 3c 1f ea 78 bc 3b cf 63 3c
       0.026090676 0.007981738 -0.015192538 0.013904388
000040 d3 95 2e bc 5d bb b8 3b 54 16 33 3c 6f 0b 44 bc
       -0.010655838 0.00563757 0.010930616 -0.011965617
000050 81 86 3b 3d bc 1a 33 3d 0b 6c 2e 3d c8 7b d6 3c
       0.04578257 0.043726668 0.042583507 0.02618207
000060 2b e6 e7 3c e2 00 18 bd a1 a3 19 3d 60 5b 2c 3d
       0.028307995 -0.037110217 0.037509564 0.04207933
000070 98 01 3e bc ae 57 1f bc f9 2c 19 bd bd 08 0d bd
       -0.01159706 -0.009725494 -0.037396405 -0.03443216
000080 58 ac d1 3c 4c 98 ca bc e4 25 1e bc 2b 2d e7 bb
       0.025594875 -0.024730824 -0.0096525885 -0.007054945
000090 6d a5 18 3d 28 e0 26 3d 15 1b cd 3c 41 df 2b 3d
       0.037267137 0.040741116 0.025037328 0.04196096
0000a0 82 84 14 3d ee 25 07 3c 7d 43 cf 3c a4 dc bd 3c
       0.03625918 0.008248789 0.025300736 0.023176499
0000b0 f7 09 2f 3b fc 38 f7 3c 2a 48 b4 bc ee 15 0f bd
       0.002670882 0.03017854 -0.022007067 -0.034933023
0000c0 77 37 17 bd b6 b5 bb bc d5 97 d4 bc e4 42 fb bc
       -0.03691813 -0.022913795 -0.025951305 -0.030671544
0000d0 d6 4a 6d bb 3a 81 94 3c 55 66 00 3d cf 56 1b 3d
       -0.0036207936 0.018128026 0.03134759 0.037924584
0000e0 ac 3b da 3c f5 c8 ac 3c f8 b2 12 3d 78 52 fa 3c
       0.026639782 0.021091918 0.03581521 0.030556902
0000f0 3d 52 6f 3c ff 3b c6 bb b9 ae ae 3c 7b 7f 13 bd
       0.0146070095 -0.0060496326 0.021323549 -0.036010247
000100 6a e3 79 bc 87 0d 8c bb 94 2c 2f 3c 3f ea c5 bc
       -0.015251974 -0.0042740735 0.010691781 -0.024159549
000110 a8 68 9d 3b 1f ae d8 bc 7c 81 94 bb 2f c8 93 ba
       0.0048037358 -0.026450215 -0.0045320373 -0.0011274869
000120 75 35 27 3d 3b 0a 15 3d ba 84 c8 bc 27 65 0f 3c
       0.040822465 0.03638671 -0.024477351 0.008752144
000130 09 9a a7 bc 2f ad 9c 3a 02 8f 0d 3d 9a 00 8d 3c
       -0.020459192 0.0011953468 0.03456021 0.0172122
000140 9b 43 b9 3c 1f 10 b2 3b e6 d2 5f bc 8c 08 ac bc
       0.022615245 0.0054340507 -0.013661122 -0.02100017
000150 23 b9 a9 bb 02 c5 c8 3b 19 ed be 3c 27 8d 88 bc
       -0.0051795407 0.006127001 0.023306416 -0.01666887
000160 91 b6 1f bd 4e e6 1c 3d 42 84 ea bc 49 40 bf bc
       -0.03899247 0.038305573 -0.028627519 -0.023346083
000170 35 bf 70 3c 97 a2 cf bc 77 94 de bc 4e fe ec 3b
       0.014694025 -0.025346084 -0.027170403 0.007232464
000180 f5 ea 10 bc 35 e4 c9 3c 73 1d 2c 3d fc de 9c bc
       -0.008845081 0.02464495 0.042020272 -0.019149296
000190 44 2c 27 3d ca c4 2d 3d 1c 17 84 3c 3b 5a 9e bc
       0.0408137 0.042424 0.0161243 -0.019330135
0001a0 7c d9 13 3d dc 8e 65 bb ed bb 91 bb 66 99 fa bc
       0.03609608 -0.0035027778 -0.0044474513 -0.030590724
0001b0 e4 0d f9 bc 0d 5c 85 3b 34 ff 34 3d 72 02 ec 3c
       -0.030402131 0.004069811 0.044188693 0.02880976
0001c0 7a ef d4 bc 99 52 c6 bb fc 4a 22 ba 00 44 af 3c
       -0.025993098 -0.006052327 -0.0006190983 0.02139473
0001d0 5a d5 57 3d 40 b2 4d 3b 7e 54 d6 3c 65 44 20 3d
       0.052693702 0.0031386763 0.026163336 0.039127726
0001e0 05 4e 97 3c 0b 0a 5c 3c b0 c4 0e 3d e5 fb ba bb
       0.01846982 0.013430129 0.034855545 -0.0057062977
0001f0 2c a5 89 3c ad 7d 09 bd a5 3c fb bc 1c 2d 51 3c
       0.016802393 -0.03356712 -0.030668566 0.012767103
000200 0a eb 11 bc aa 2a a7 bc 07 2d f4 3c b2 e5 3b 3d
       -0.008906135 -0.020406086 0.029806627 0.04587335
000210 1a 05 c1 bb c5 4a 1a bd a0 ac b7 bc a6 72 2e 3d
       -0.0058905007 -0.037668962 -0.022421181 0.042589806
000220 07 a8 08 bd 2a 11 e9 bc 16 79 9f 3b 70 cd f5 3c
       -0.03336337 -0.028450567 0.0048667295 0.030005187
000230 dd 36 94 bb ea ab 04 3c b9 91 c6 3c 81 11 dc 3c
       -0.004523142 0.008097628 0.024239408 0.026863815
000240 fc a3 04 3d d0 f8 85 bb 03 a4 2e 3d ce d3 1d 3d
       0.03238295 -0.0040884987 0.042636883 0.03853207
000250 9b e4 8b ba a8 84 42 3c e9 4e a7 bc 52 cc 03 bd
       -0.0010672988 0.011872448 -0.02042337 -0.032177277
000260 bc f7 7a bc 34 e2 be bc 71 6f 0c 3d 1d 2b d4 bb
       -0.015317854 -0.023301221 0.034285966 -0.006474866
000270 b4 20 55 3c fe 0e 30 3c 2f 3c c7 bc 51 6c 9c 3c
       0.013008285 0.010745762 -0.02432069 0.019094618
000280 58 57 87 3b 65 0a d6 bc 5a 1a 31 3d c3 d0 04 bc
       0.0041302852 -0.026128003 0.04323802 -0.008106413
000290 1c 6a 0c 3d 99 41 22 bd 8b 6f 0e 3d 02 27 08 bd
       0.03428088 -0.03961334 0.034774344 -0.033240326
0002a0 fc bc fd bc 44 f5 93 3c 97 f1 60 3c 98 01 06 bd
       -0.030973904 0.018061288 0.0137294745 -0.032716364
0002b0 6f 0b 69 bc 52 b7 a9 bb e3 84 cb 3b 44 b9 3d bc
       -0.014223917 -0.005179324 0.0062109097 -0.011579815
0002c0 71 75 0c bc ca 26 77 3b 6d 8c 3e 3d 97 51 7f bc
       -0.008572922 0.003771233 0.04652064 -0.015583417
0002d0 6c fe a5 3c a0 e0 ba 3c e2 75 0f 3d fd ae 22 3d
       0.02026292 0.022812188 0.03502453 0.039717663
0002e0 65 a6 3a 3d ff 5b 16 bd ae e6 16 bd 0e bb 3e ba
       0.045568842 -0.036708828 -0.036841087 -0.0007275798
0002f0 40 24 cb 3c f0 9d 99 3c 1f 49 f8 ba fa d5 81 3c
       0.024797559 0.018752068 -0.001894269 0.015849102
000300 50 62 6d 3c 20 ab 09 3d 07 2e 4d bb 89 5e 84 bc
       0.014488772 0.033610463 -0.0031307952 -0.01615836
000310 d2 48 cf bc 73 c3 40 3c 96 aa 19 bd e9 82 a8 bc
       -0.025303278 0.011765349 -0.0375162 -0.020570235
000320 31 eb 8d bc 55 52 47 bc 19 c7 27 3d 59 53 fc bb
       -0.017324062 -0.012165626 0.04096136 -0.0077003655
000330 38 a3 12 39 ff 0b 0c 3c 94 30 ce bb 98 ed 16 3d
       0.00013984449 0.008547782 -0.006292412 0.03684768
000340 9f 34 9e bb fe d7 a3 3c 97 f6 12 3b 4c 5f de bc
       -0.0048280503 0.020000454 0.002242481 -0.02714505
000350 c5 89 33 3c 61 d7 03 bd 13 88 20 3d 10 f4 16 3d
       0.01095814 -0.032187823 0.03919227 0.03685385
000360 1f 57 1b bd c9 bb 13 bd 20 af ae bc 83 32 ca 3c
       -0.037924882 -0.036067758 -0.02132374 0.024682289
000370 18 d3 0e bc fe a7 be bc 15 f5 f3 bc 70 06 b0 bc
       -0.008717321 -0.023273464 -0.02977995 -0.021487445
000380 51 ef 5e bc 88 08 95 3c 8a a7 e3 bb bb 33 b9 3c
       -0.013606862 0.018192545 -0.0069474624 0.022607675
000390 f9 eb f6 3c b4 94 22 3c 3e b2 75 bc 87 dd 2a 3c
       0.030141817 0.009923149 -0.0149961095 0.010428793
0003a0 01 90 f2 3c a8 c3 d1 39 29 8b 00 bd ad 2a 85 3c
       0.029609682 0.00040009362 -0.031382713 0.016255701
0003b0 5d 6f 1e bc 9b 02 b1 3b ce eb 10 bd 50 3d 19 3d
       -0.009670106 0.005401922 -0.03538113 0.037411988
0003c0 b1 3d a3 ba 7e 0d 11 bc a8 7b 94 3c db 0c 2b 3d
       -0.0012454299 -0.008853314 0.01812537 0.041760307
0003d0 51 c0 41 3c e4 11 86 bc ef da 56 3c 19 f8 f9 bc
       0.011825637 -0.016365953 0.013113721 -0.03051381
0003e0 e9 08 5d bc ac 8a 0c bc a1 5f 33 3c 47 31 e9 bc
       -0.013490894 -0.008577984 0.010948093 -0.02846588
0003f0 fa 2e 88 bc 46 0f 14 3d 9f 0c a6 3c c8 ee f5 bc
       -0.016623963 0.03614738 0.02026969 -0.030021086

conv4.0.bias f4 [128]
000000 16 4f 2a 3d 91 ba a3 bb 1f 07 98 bb 97 d0 22 3d
       0.04157933 -0.0049966057 -0.004639521 0.039749708
000010 4b 16 0a 3d e6 00 d4 3c d4 13 22 3d 9a 9d 31 3d
       0.033712666 0.025879335 0.03956969 0.04336319
000020 af 4a 7a 3d 43 79 0b 3d 9e c8 a7 3c 6c 8f 07 3d
       0.06110638 0.03405119 0.020481404 0.033095762
000030 41 27 11 bd 89 a7 86 bb 07 0e b9 3c 89 f4 b7 bc
       -0.035437826 -0.004109327 0.022589697 -0.02245547
000040 47 f9 6f bc 21 82 e0 bc 5a 7b 52 bd 6b bc 24 3d
       -0.014646835 -0.0274058 -0.05138717 0.040218752
000050 3a 53 f7 3c d8 cc ec 3c e7 c2 34 3d 7f bf 4a 3d
       0.030191053 0.02890627 0.044131186 0.04949903
000060 7d 01 3c 3b 97 d8 48 3d ac 38 a2 bb 3f 4a 08 3c
       0.002868741 0.04903468 -0.0049506035 0.008318483
000070 c2 85 14 3d fa 87 c4 bc b6 27 e4 3c f7 ef 55 3a
       0.036260374 -0.02399062 0.027850967 0.0008161063
000080 7c 1e db bb bf 79 a3 bb e4 b9 1c 3d e0 37 e0 3c
       -0.0066869836 -0.0049888785 0.038263217 0.027370393
000090 49 88 f5 3c e1 99 92 3c 52 bf 27 bd 31 08 fa 3c
       0.029972212 0.01789564 -0.04095394 0.030521484
0000a0 d7 81 15 3d fd d7 f1 3c 12 27 8b 3c e0 58 1c bd
       0.036500778 0.029521937 0.016986404 -0.038170695
0000b0 5b 43 c1 3b ec 58 25 3d cb 99 f5 bc 4c c8 4f 3d
       0.005897922 0.040368006 -0.02998056 0.050728127
0000c0 ab 0d 82 bc 55 1a 1b bd ab 47 53 3b 1a c7 69 3d
       -0.015875658 -0.03786691 0.0032238762 0.057074644
0000d0 93 af f5 3c 37 45 57 3d dd 81 74 3d fb 39 5e 3d
       0.029990947 0.052556243 0.05969416 0.054254513
0000e0 09 b8 0d 3d 93 31 6d bb 82 70 07 bc 28 9c 18 3d
       0.034599338 -0.0036192879 -0.00826657 0.037258297
0000f0 9e 11 e8 3c 64 b5 71 3c 5f e4 f2 3c dc 82 cf 3a
       0.028328713 0.01475272 0.029649911 0.0015831846
000100 02 19 03 3a 86 ee 25 3d 69 05 91 3c f2 54 04 bc
       0.000500098 0.040510677 0.017702775 -0.008076893
000110 64 50 5f 3b 0a 77 d8 bc 08 22 0e 3d b3 61 39 3d
       0.0034075016 -0.02642395 0.034700423 0.04525919
000120 c3 89 2b bc 69 6c 07 bc 80 1b 12 3d 99 ba 28 3b
       -0.010469857 -0.008265593 0.035670757 0.0025745986
000130 55 1d 39 3d 7b 9c e0 3b e6 c4 e3 3a d2 70 6d 3d
       0.04519399 0.0068545914 0.0017377406 0.057968922
000140 1a 8f 95 3c 44 7b 2b 3d 68 c8 c7 bb 3f 61 3c 3d
       0.018256713 0.041865602 -0.0060968883 0.04599118
000150 02 ab 22 3c 40 bc 03 bd a6 25 20 bc 88 93 6f bc
       0.009928467 -0.03216195 -0.009774601 -0.014622577
000160 34 a3 d5 bc c4 68 e6 3c ab c7 8d 3b 81 f1 28 bb
       -0.026078798 0.028126128 0.004326781 -0.0025778713
000170 e7 cb 09 3d ed f2 b0 bc e9 67 38 3b 89 05 a4 3b
       0.033641722 -0.021600211 0.0028138107 0.0050055427
000180 b6 da d4 3c 4f 15 47 3d 7d 12 9d 3c 25 b2 44 3d
       0.025983196 0.048604306 0.019173855 0.048021454
000190 9a 2d 6c ba c4 ce 5d bc 77 62 ce bc 0a e4 31 3d
       -0.0009009481 -0.013538066 -0.025193436 0.043430366
0001a0 6d ff 7d 3d 9d fa c1 39 e1 b9 70 3d 60 c9 60 3c
       0.06201117 0.0003699855 0.058771018 0.013719887
0001b0 02 06 04 3d 06 88 82 3c ba d8 88 3c 13 07 dd bc
       0.032232292 0.015934002 0.016704906 -0.026980912
0001c0 72 a5 9d bc f6 f6 c8 bb 1e 01 82 3b 64 08 c0 bc
       -0.01924393 -0.0061329557 0.0039674183 -0.023441501
0001d0 8a a7 c0 3b c8 9c 23 bc be 56 89 bc 3a ff 54 3d
       0.005879347 -0.00998611 -0.016764995 0.052001216
0001e0 76 a3 ef 3c 55 33 e9 bb d5 b3 3d ba 1f 00 09 3d
       0.029252749 -0.007116715 -0.0007236575 0.03344738
0001f0 58 80 a5 3c 85 8d d7 3c 75 2c 16 3d f3 07 a9 bc
       0.0202028 0.026312599 0.03666349 -0.020633673

linear.weight f4 [6, 2560]
000000 ab ab cf 3c bd a4 b8 bb ba 3a d7 3c c1 5c 1a 3a
       0.025350412 -0.0056348727 0.02627312 0.0005888455
000010 d0 c4 4d 3c f6 29 cf 3c b7 99 ae 3c 36 1f b7 3c
       0.012559131 0.025288563 0.021313531 0.02235375
000020 b0 69 32 3c 5d 88 6d 3c 9b c6 4d 3c 5c 70 ad 3a
       0.010889456 0.014497844 0.012559558 0.0013232338
000030 5a 06 8d 3c 24 2a 9b 3c 21 e0 19 3d 33 9d ff 3b
       0.017214943 0.018940993 0.03756726 0.007800722
000040 13 50 de 3c 94 04 34 3c c7 57 08 3d bf 49 1e 3d
       0.027137792 0.01098742 0.033286836 0.03864455
000050 c6 6e d9 3c fe 84 80 3c ba ce 9f 3c 80 d7 9c 3b
       0.026542079 0.015688416 0.019507755 0.004786432
000060 ac 38 d5 bb a2 be 30 3c e8 f1 4c 3c 94 b4 52 3c
       -0.006507 0.010787638 0.012508847 0.012860436
000070 6f 8d 6a bb 7d ed 55 3a 5b a2 c9 ba 54 1d ee 3c
       -0.0035789867 0.00081606937 -0.0015383469 0.02906672
000080 04 52 34 3b e4 7d 9e 3b 61 ac 92 3c ef 0b e2 bb
       0.0027514705 0.0048367847 0.017904462 -0.0068983953
000090 40 a4 80 bc 51 cc 78 3b a0 6e b3 3c b9 b5 35 3c
       -0.01570332 0.003796358 0.021903336 0.011090689
0000a0 89 e6 ba bb 63 2e e1 3c f0 e3 ce 3c 27 ad 1c 3b
       -0.0057037515 0.02748794 0.025255173 0.0023906918
0000b0 cc af 45 3b 37 80 a1 3c 7e 99 04 3c 8d b6 10 3b
       0.0030164598 0.019714458 0.008093236 0.0022081465
0000c0 8c 98 5a bc df 13 dc 3c 0b 9c b5 3c 7e 42 cd 3c
       -0.013342034 0.026864944 0.022169134 0.02505612
0000d0 a8 a5 1d 3d 72 42 d5 3c 46 42 0e 3d 8b 0d d0 3c
       0.03848806 0.02603266 0.034731172 0.025397083
0000e0 f0 7f 7f 3c d0 d2 07 3c 86 09 c0 3c 60 2a 16 3c
       0.0155944675 0.008290008 0.023442041 0.009165376
0000f0 98 e5 93 3c d8 95 63 3c 2a c7 a5 3b f4 bc 24 3c
       0.018053815 0.013890706 0.0050591426 0.010054816
000100 0a 9c b3 3c 72 9f d5 3c cb b6 b7 3c 40 16 d6 bb
       0.021924991 0.026077006 0.02242603 -0.006533414
000110 22 63 a7 3c af c8 f8 3c d4 1d 7b 3c d9 1b 3d 3c
       0.020433012 0.03036913 0.015326936 0.011542284
000120 21 69 17 3c 91 81 93 3b 8f 03 2a 3c f5 0e 0a 3d
       0.009241373 0.0045015295 0.010376825 0.03370567
000130 20 17 ed 3b 2a 0b 9a 3b 74 79 15 3d 77 06 42 3c
       0.0072354227 0.004701038 0.03649278 0.011842362
000140 b6 9c 2a 3c e9 e0 d9 3c 8e 14 3a 3c 20 0b 47 3b
       0.010413339 0.026596503 0.01135744 0.0030371621
000150 88 65 bc 3c ac bd 4e 3c 9c 87 c9 3c 2c a5 8d b9
       0.022997633 0.0126184635 0.024600796 -0.00027016678
000160 0f 8c 17 b6 11 20 a3 bb 49 82 b3 bb c3 bf 00 3d
       -2.2582278e-06 -0.004978188 -0.0054781777 0.03143288
000170 ec b8 b9 3c ff 79 1c 3c c4 e9 28 3d ac a3 06 3d
       0.022671185 0.0095505705 0.04123856 0.032870933
000180 d0 46 9f 3a e6 00 25 3c 7c e7 1b 3d 81 c8 29 3c
       0.0012151841 0.010071015 0.038062558 0.010362745
000190 a8 28 a5 3b 34 7f 87 3c e9 d0 16 3b 7c b4 16 bc
       0.005040247 0.016540147 0.0023012704 -0.009198304
0001a0 bd 89 85 3c df 14 b3 3c ca 16 08 bc 99 70 bd 3c
       0.01630103 0.021860538 -0.008306215 0.02312498
0001b0 60 a9 da 3c 43 42 9c 3c a8 c4 7d 3a dd c0 74 3b
       0.026692092 0.019074565 0.0009680488 0.00373464
0001c0 80 d5 3b 3c 5d b8 56 bc 3b 7b 20 3c ec 3a aa bb
       0.011464477 -0.013105479 0.009795005 -0.0051950123
0001d0 69 6f f4 3c 10 a3 1b 3b e8 4c c3 3c c7 9c e2 bb
       0.02983828 0.0023748316 0.023840383 -0.006915662
0001e0 31 39 91 bb b1 e8 e3 3c a9 77 96 3c 67 e5 77 3c
       -0.0044318666 0.027820917 0.018367605 0.015130377
0001f0 15 4b 86 3a fd 84 5e 3c 31 9f 9a 3c 31 07 85 bb
       0.0010245765 0.013581512 0.018874737 -0.004059695
000200 0e be 9c 3c 1e 98 69 3c bd b3 fb 3c b5 78 22 3c
       0.019133594 0.014257459 0.030725354 0.009916474
000210 6f ec 1d 3c 3b f6 08 3d 91 ef 7e 3c 20 9d 16 3d
       0.00963889 0.03343795 0.015560047 0.03677094
000220 f8 f0 cc 3c 4d e6 aa 3c 1d ca f9 3c 22 35 1b 3d
       0.025017247 0.02086177 0.030491883 0.03789247
000230 e7 14 03 bb d5 80 2e bc 9e 3a 5d 3c e4 a1 f4 3c
       -0.0020001472 -0.010650833 0.013502745 0.029862352
000240 42 3b b1 3c 9f a0 97 3c 2e fa 98 3c d5 a9 5a 3c
       0.021634702 0.018509207 0.018673982 0.013346155
000250 31 e0 99 3c 54 d0 2d bb 06 12 c2 3c 88 8b 1c 3b
       0.01878366 -0.0026521878 0.023690235 0.0023886878
000260 73 86 ed 3c b6 2f 18 3d e2 fa 21 3c d8 c6 d2 3b
       0.028994774 0.037154876 0.009886475 0.0064323954
000270 44 a1 e6 3c 30 6d 1c 3d da 39 a1 3c d0 b7 c2 3c
       0.02815307 0.038190067 0.019680906 0.02376929
000280 ee bb e1 3c bc 6f 49 3a 4b 22 b4 bb e9 16 8c 3c
       0.027555432 0.0007684191 -0.005497252 0.017100768
000290 a7 6e 8f bb 2a 47 d9 39 04 47 18 3c d8 43 4f 3c
       -0.0043772045 0.00041442487 0.009294275 0.012650453
0002a0 4b 81 f6 3c 1a 1d 8c bb 50 4f f7 3c 94 97 32 3c
       0.030090949 -0.00427593 0.030189186 0.010900397
0002b0 d0 a1 e0 3b 1d 4b 00 3c 83 21 13 3a d0 b0 ed 3c
       0.006855227 0.007830408 0.00056125986 0.029014975
0002c0 83 e0 86 3c fd a6 75 39 f8 f7 da 3c 97 33 02 3d
       0.016464477 0.00023427229 0.026729569 0.03178748
0002d0 91 e3 1b 3c f7 18 e7 bb 1d 86 5b 3a 33 2b 95 3b
       0.009514705 -0.0070525366 0.00083741714 0.004552269
0002e0 7f b5 4f 3a 5f 19 b3 3c 9b 3a f3 bb 24 40 ae 3c
       0.00079234684 0.021862684 -0.007422758 0.021270819
0002f0 aa a7 53 3c 23 25 5d 3c 35 88 8b 3c ab e3 e9 3c
       0.012918392 0.013497624 0.017032722 0.028550943
000300 14 7c 0e 3d b3 0b f9 3c c2 f9 9f 39 5f 29 f2 3b
       0.0347863 0.030401086 0.00030512927 0.0073901857
000310 cb 5f bb 3c 77 f3 7c 3c 2c 12 26 3c 16 b7 f7 3c
       0.022872826 0.015438906 0.010136168 0.03023867
000320 c2 5e 71 3c 52 d7 f0 3b 4c 4d 78 bb 5b 8c 13 bb
       0.014732065 0.007349887 -0.003788787 -0.0022514078
000330 2c ad f3 3b ff 88 97 3b df f8 29 3c c7 c5 a8 3c
       0.007436415 0.0046244855 0.010374277 0.02060212
000340 73 f2 e6 3c 36 c0 30 3c 1f 4a 61 3c b0 71 e5 3b
       0.02819178 0.010788014 0.013750582 0.007002078
000350 f6 2f 17 3b 4a 1d d7 3c 92 ab 39 3c a4 89 13 3d
       0.0023069358 0.026259083 0.011332409 0.036019936
000360 62 06 3c 3c ea b3 f5 3c aa 48 bd 3a c7 13 dc 3b
       0.011476131 0.029993016 0.0014441211 0.006716225
000370 72 8f 9a 3c 10 2a 91 3c 43 01 40 3b d7 69 02 3d
       0.018867228 0.017720252 0.0029297627 0.031839218
000380 2b 39 a2 3c b4 23 c5 3b 9c cc 94 3a 3c 06 8e 3c
       0.01980265 0.006016219 0.0011352482 0.017336957
000390 79 b7 d8 3c 69 d9 02 bc 8d a0 b2 3c ab 30 8e 3c
       0.026454674 -0.007986405 0.021805072 0.017357191
0003a0 fa 4e ee 3c a6 5e f1 bb f2 0c 83 3c 33 ac 0b bc
       0.029090393 -0.0073660193 0.015997384 -0.008524942
0003b0 82 78 5e 3c 17 0e d4 bb 52 a9 8d 3c ba 1b ab bb
       0.013578536 -0.006471406 0.017292652 -0.005221811
0003c0 11 5e 9d bb 1d b3 00 3b c9 c1 bc 3c 74 7e ca 3c
       -0.0048024734 0.001963801 0.023041623 0.0247185
0003d0 3d 7e 97 3c be 24 8b 3c cd 81 42 bb 2b 8c 3a 3b
       0.018492812 0.016985293 -0.0029679418 0.0028464894
0003e0 d1 3f bc bb 53 19 82 3c 69 0a cc 3c 90 4e df 3b
       -0.005744912 0.015881216 0.024907308 0.0068147853
0003f0 15 52 94 bb df 67 73 bc ff cb 4d 3c 0f d7 dd 3b
       -0.0045263865 -0.014856308 0.0125608435 0.0067700217

linear.bias f4 [6]
000000 23 8b 88 3c d0 78 e3 bc 35 8c 5a bc 46 0f a2 bc
       0.016667908 -0.027767569 -0.013339092 -0.019782674
000010 8c ab 5d bb be 9e 69 bb
       -0.0033824174 -0.0035647596
